Code/3_optimizer/3_2_optimizer/net_params.pkl (torch_old, 1001 bytes, 3 tensors)

conv1.weight f4 [1, 3, 3, 3]
000000 8b 10 00 3e d4 d5 e5 bd 61 19 d6 bd c8 85 30 be
       0.1250631 -0.11222425 -0.104540594 -0.17238533
000010 e8 a0 e2 bd 49 c6 3a 3e 0e 97 a0 bd 9c 65 44 3d
       -0.11065847 0.18239702 -0.078413114 0.047948465
000020 55 cf 01 3e 2b 85 24 3e 94 b9 0a 3d 40 ac 7c bd
       0.12676747 0.16066425 0.033868387 -0.061687708
000030 5f 24 01 3e 5c b2 3f 3d b2 bf 90 3d be 18 f3 bd
       0.1261153 0.046800956 0.07067813 -0.118699536
000040 54 b6 d9 bd 75 14 1e 3e 7c 10 1a bd 34 ce 61 bd
       -0.106304795 0.15437491 -0.037613377 -0.05512829
000050 d5 17 18 3e bf 3d 43 3e f6 fe ca bd 73 d0 43 be
       0.14852841 0.19066523 -0.09911911 -0.19122486
000060 6e 4e 9c 3d 60 76 df 3c f8 db 67 3d
       0.07632147 0.027278125 0.056606263

fc1.weight f4 [2, 9]
000000 f2 24 a5 be 08 48 29 be b6 55 bc bd 6a e9 4f 3e
       -0.3225475 -0.16531384 -0.091960356 0.20303884
000010 80 b6 90 bd 00 a3 b9 bd 64 65 de 3d 53 5f 94 3e
       -0.07066059 -0.09064293 0.108591825 0.28978977
000020 5a f5 70 3e 60 4f 7e be 46 c4 d9 bd 30 ca 09 3e
       0.23531094 -0.24834967 -0.10633139 0.13456035
000030 0c b1 eb 3d 16 bd 1a be fb e3 35 be 60 8a 2e 3c
       0.115083784 -0.15111193 -0.17762749 0.010653108
000040 da 0d 2c 3e ea 80 6b 3e
       0.16802159 0.22998396

fc1.bias f4 [2]
000000 05 53 83 3e be e2 7e be
       0.25649276 -0.24891183
