Code/2_model/net_params.pkl (torch_old, 249573 bytes, 10 tensors)

conv1.weight f4 [6, 3, 5, 5]
00000000: f144 b9bc dd96 20be 9531 4bbd aa80 a3bd
00000010: ea98 febd 60bf 1bbe c19b b8bd 57e4 89be
00000020: 1a44 35be e3a0 9cbd 94f3 8bbe e7ab 8abe
00000030: d3bb a2be af37 27be 3440 de3d 941a 34be
00000040: 0944 9abd b1e7 36be 8656 71be c9d2 afbd
00000050: bd5b 6cbd 3fc7 603d e4a3 46bd c230 a2bc
00000060: 9353 fbba 2215 2c3d c2d0 36bc d481 973d
00000070: 17a7 d43d 88eb 813d 077a ecbd 9356 69bd
00000080: afa4 5cbd be90 093e 9aa0 7a3d e17c d23b
00000090: d32d 903c 86c5 94bd e5db cdbd 2fdb 83be
000000a0: 9d5b 053d a94e 4c3d eb74 103e 6055 603d
000000b0: 1863 d7bd b8be 0fbd 87ec 23bd 9a9a 463d
000000c0: c996 f9bb 6bbe 73be fde4 123e 7aa3 c53e
000000d0: 26f7 893e 102a 273e 6ada 563e 9631 403e
000000e0: bd58 aa3e 1b1f d73e d2f9 7c3d 8a98 743d
000000f0: 51f7 7b3e 3f28 4b3e ac1a 323e 3575 033e
00000100: af5b 67bd 9c1e a53e cb4b 1f3e 41ad 8d3e
00000110: f02a 4c3e 5ade 233d 3ef4 1a3e 16b1 623e
00000120: 83ce 9c3d 8171 e33d dd6d efbd 437d 9abd
00000130: ebec e93d 6dd6 873d 01a7 473e 0976 113e
00000140: 688e c93c 23fb a93e 8488 5dbd 64cd 01be
00000150: bbc0 c23d bde2 923d 27a4 5d3e 9c40 113e
00000160: f4e9 a5be 9287 96bd 96cb 76bc 36b3 423e
00000170: d7d8 f83d 29b4 b2be 589c 4a3c 5571 d03b
00000180: 04e0 bf3d 907c b33d 84ab 60be db6b 693c
00000190: bbfa 0a3d baa8 28be f5e8 6f3d 2d35 f2bd
000001a0: f127 1dbe c045 e839 ca97 febc 7688 d23d
000001b0: 1168 5cbe 5a3f a0be 3d7c 56bd 2601 493e
000001c0: adf1 bc3c 69b8 9abe 5e9a 10be 429e 3f3c
000001d0: 7c83 893e f2b6 a43b fd62 aebe f869 cfbd
000001e0: afa0 0bbe 2534 ed3d eda9 d4bc 53a5 73be
000001f0: 29ca 2fbe 56e3 80ba bd9b 963e c2a2 77be
00000200: 2ea2 e9bb 420f 80bd 4d70 0a3e 4bb6 823e
00000210: 2bd9 e93d 3821 bbbd b93b 75be e804 773d
00000220: bf97 1e3f 2a2e b93d de2b ccbe 8e0a 79be
00000230: 1f7b 5a3e 0460 023f af4e a83d 2f00 b8be
00000240: 0223 8cbe ba36 8d3e 8cf7 633e 82de 0b3e
00000250: 98c7 bcbd cdcc f3bd 83ac 98bc 85ce 54be
00000260: 8e54 da3d 1cde b93d f400 50be ca61 983e
00000270: bad8 03bd af1d 32bf 7223 65bc 692f df3e
00000280: 44a7 683e 2f33 c53d 55b2 bfbe cfbb 8cbe
00000290: 4898 c43d d0c3 16be 2a6d 213e 501d e53e
000002a0: c634 d7bd 3982 cdbe 321a 97bd 8e40 e13d
000002b0: b63c 863e d439 0d3e 194b 86bd b8e1 f4bc
000002c0: 52b6 67be d58b 1b3e fa26 703e 5ece d13d
000002d0: a431 ae3e 0a2b 173e 55e3 18bf 3965 c83c
000002e0: 8e97 0e3f 1354 4e3e 2292 d83d ef24 cabe
000002f0: b4ba 18be 8646 3e3e bc0b 99be 5cd0 4abd
00000300: a5e7 cd3e b5fd 133e ac58 b0be 745f b0be
00000310: 3c6c 2ebd 6b76 7f3e 5ace 50be 75ea 87bc
00000320: 9760 c9bd b89c b3bd fe55 f63c 8d75 243e
00000330: a1c6 65be 1567 a23e a611 4cbd f7c1 29bf
00000340: 25b1 16be e8ea a03e e85d c93e 5b87 543e
00000350: bbaa 80be 9026 72be 5e9c ccbd 4638 d2bd
00000360: 8500 7e3d c92a 073f a787 96bc da93 77be
00000370: e078 f1bd 81f2 443d 0d1a 673e d0fc 0d3e
00000380: de20 31be 4050 d23c e7af febd 1199 203d
00000390: efd1 ae3c 8f0b 623d f455 613e cef9 1a3e
000003a0: a868 2fbd 26f9 6b3e 0816 0ebd a22b 253d
000003b0: 26df 843e 34ea 983e 9f0c 893e b05f d33e
000003c0: a054 03be 8446 323e 30f9 fe3d c140 423e
000003d0: b7cd 4e3e 8e56 18be 0906 7bbe daf2 c5be
000003e0: 8fb2 d7be b0e8 a3be 1818 36bd f7ba 813e
000003f0: f3d2 413e 1bbe 573e 7f1c e5bd f2ab 46be
-0.022615882 -0.1568255 -0.049607832 -0.07983525 -0.1243151 -0.15209723 -0.09014083 -0.26932022
-0.1770176 -0.07647874 -0.27334273 -0.27084276 -0.31783924 -0.16329835 0.108520895 -0.17588264
-0.07532508 -0.17861821 -0.23568162 -0.08585126 -0.057704676 0.054877516 -0.048496142 -0.01979864
-0.0019174687 0.04201234 -0.01115817 0.073978096 0.10383432 0.06343752 -0.11546712 -0.05696733
-0.053867992 0.13434121 0.061188318 0.006423578 0.017599976 -0.07264237 -0.10051707 -0.2575316
0.032558072 0.049879704 0.141071 0.05476892 -0.105169475 -0.035093993 -0.040020492 0.048487283
-0.007616852 -0.23803107 0.14345165 0.38601285 0.26946372 0.1632464 0.20981756 0.18768916
0.33270827 0.4201592 0.061761685 0.059715785 0.24606062 0.19839571 0.17392987 0.1283768
-0.05648392 0.32249916 0.15556256 0.27671245 0.19938254 0.040006973 0.15132234 0.22137865
0.076565765 0.111056335 -0.11690877 -0.07543423 0.11422142 0.06632695 0.194973 0.14205183
0.024604037 0.33199415 -0.05408527 -0.12676007 0.09509417 0.07172153 0.2164465 0.14184803
-0.32405055 -0.07350077 -0.015063187 0.19013676 0.12150734 -0.34903076 0.012366377 0.0063611665
0.093688995 0.08763993 -0.21940428 0.014246906 0.03393052 -0.16470614 0.058571775 -0.11826549
-0.15347268 0.00044302456 -0.031078238 0.10279934 -0.21524073 -0.31298333 -0.052364577 0.19629344
0.023064459 -0.3021882 -0.14121386 0.011695446 0.26858127 0.0050266916 -0.34059897 -0.10127634
-0.13635515 0.115822114 -0.025959933 -0.23793535 -0.17166962 -0.0009833376 0.29415694 -0.24183181
-0.007129929 -0.0625291 0.13519402 0.25529703 0.11418375 -0.09137195 -0.23948564 0.060307413
0.61950296 0.09042008 -0.39877218 -0.24320433 0.2133603 0.5092776 0.08218133 -0.3593764
-0.2737046 0.27580816 0.222624 0.13659099 -0.09217757 -0.11904297 -0.018636947 -0.20781906
0.10660659 0.09075567 -0.20312864 0.29762107 -0.03218911 -0.69576544 -0.013985502 0.4359086
0.22720057 0.09628903 -0.37440744 -0.27487037 0.09599358 -0.14723134 0.15764299 0.44748926
-0.105081126 -0.40138415 -0.07378043 0.10998641 0.26218194 0.13791591 -0.065572925 -0.029892787
-0.22628143 0.1519006 0.23452368 0.102444395 0.34022248 0.14762512 -0.5972188 0.02446233
0.55700004 0.2014926 0.105747476 -0.39481303 -0.14914972 0.1858159 -0.29891765 -0.049515113
0.40215793 0.1445225 -0.3444265 -0.34447825 -0.04258369 0.24947517 -0.20391217 -0.01659129
-0.09832876 -0.08770126 0.030070301 0.16060467 -0.22439052 0.3171927 -0.04982152 -0.6631159
-0.14716013 0.3142922 0.39329457 0.20754759 -0.25130257 -0.23647523 -0.09990762 -0.102646396
0.062012214 0.5279966 -0.018375231 -0.24177495 -0.11790633 0.048082832 0.22568531 0.13865972
-0.17297694 0.025673032 -0.124358945 0.039208476 0.021340339 0.055186804 0.22005445 0.15134355
-0.042824417 0.23044261 -0.03468898 0.040324815 0.259515 0.29866183 0.26767442 0.4128394
-0.1282525 0.17409712 0.124498725 0.18970014 0.20195661 -0.14876768 -0.24514021 -0.38661844
-0.42128417 -0.32013464 -0.04445657 0.25337955 0.18928127 0.21068613 -0.11187076 -0.1940153

conv1.bias f4 [6]
00000000: 3d75 c83e 16a0 b7bd 4ec1 b53c 1656 c4be
00000010: 50ac cdbe 4a05 8ebe
0.39151946 -0.08966081 0.022186901 -0.38346928 -0.40170527 -0.2773841

conv2.weight f4 [16, 6, 5, 5]
00000000: 82ea ac3d 98c3 263a 246f 3b3d d440 e03d
00000010: e9c8 533d 58cf 25be 6ebf 14bd 5f39 393d
00000020: d6c8 213d 3d43 af3c 8d4a f6bd 41b6 8cbd
00000030: a366 cdbc 8b82 093d 8722 43bd 5d58 b8bc
00000040: 66b0 d83d ffec 473c 3289 6bbd 251e 90bb
00000050: 7537 dabd c495 64bd a359 a33c 71fc ed3c
00000060: 90e2 69bd 9ad5 5c3d 2383 cabc 1b6d 59bc
00000070: 9a6f 91bc 9ecc ddbd a11d 823d f5e5 c4bd
00000080: b714 583e f7ff a7bd 91c8 4a3d 5b07 b3bd
00000090: 0be4 f8bd 2a6b 673e bdb5 87be 6338 3a3e
000000a0: cd53 47bd 39b7 4fbd b0c6 cc3d 69bb 7abe
000000b0: e387 293e 74ee 9dbc 2016 2d3d a29b b5bd
000000c0: 9c84 7dbe 4fca 6f3c 0d30 e4bd d63d c4bd
000000d0: b892 7ebd 15b5 14be fbfa 813c a069 efbc
000000e0: 1b6f 4abd e0dd 9abd 6fb4 87bd 0c18 2fbc
000000f0: 5031 1d3e b9e9 323e a6b9 83bc d3a4 083e
00000100: ed5f 04bc d846 b43d 5a19 d53d 6cd8 2c3a
00000110: feeb ce3d e674 cdbb cd0a a2bd b4c7 08bd
00000120: 4e93 8c3c 8d8f 893c 8980 6bbd fc5f 153e
00000130: 9b1a cebd 94a4 e13d ac5c b4bc 9ad4 6a3d
00000140: 28a3 863d 631b 25bd 4e0a 063e cf26 38be
00000150: f4a8 553d 8bb2 debd a1c3 e03c 993d 0e3c
00000160: 950a 84bd f9ad 453c 431c 87bd 6bd1 333b
00000170: 2c78 653d a812 00bd 1833 07bd f81b bebd
00000180: 94ed 0cbd 9b81 a63c d9f2 533d bb33 bfbd
00000190: a2e3 59bd 5a13 62bd ff63 1f3d f0a4 c6bd
000001a0: a0ad a23d d3d8 64bd 0f80 ed3d 25a0 72bc
000001b0: e55b 713d ca02 143e ef1a 953d 686e 893e
000001c0: 5c09 e23d 6686 043e 6d21 c43d aedb 043d
000001d0: c9f2 bc3d 067f d63c 0076 873d 254f 163b
000001e0: 65d0 253d bc3b 93bb a9c9 86bd 45c3 edb8
000001f0: c142 2d3d e1f3 133d 834b 063d 2143 0e3d
00000200: 0c90 39bd 6e9e acbd 6406 9dbd 766b dbbd
00000210: c8f7 99bd 4290 73be c69d 60be 8283 873c
00000220: 5979 dbbb 2a36 a3bc 0de5 29be abb6 d4bc
00000230: 7a2a 313e 5a6a fd3d f45e 333e 6b4e 06bd
00000240: b8c6 b13b 01fc 953e 1ab0 5f3e 35be 933d
00000250: 2d76 7b3c 7ef0 0c3d edd7 12bd abaa 8f3d
00000260: aad3 c03c e7ab 003d 0d5a 24bd 89fa 903c
00000270: db36 bb3d aa1e fd3b 66cc 02be e90d 903c
00000280: eb5e fbbc dd32 72bd 9ba9 79be 520b ddbd
00000290: c251 eabd b002 44be 6116 2ebe 1093 babd
000002a0: 0f46 d43d 6764 263e 2e67 5b3d 6838 cfba
000002b0: d685 0c3e 5877 d53d 63b8 853e 1795 103d
000002c0: 0aa8 0d3e 6a21 a13e 45fe 453e 2bb1 9e3d
000002d0: 9430 943d 8e3c 593e 0994 a93c 7434 2dbd
000002e0: bd7a 74bc 1471 133e 8140 abbd 5374 07be
000002f0: 3a0c 16be 19d4 94bd c37f 02be 3de4 d1bd
00000300: 0c83 38be 5194 0dbc 9967 8e3d a5f9 28be
00000310: cc95 30be 889f a439 4c7f 803d 0f84 4bbc
00000320: 4404 be3d bc7f 303e af0c 6b3d cf3a bb3b
00000330: 6fbb f83c c4f4 9f3d 166a 843c c377 bf3c
00000340: 63b2 37bc b13c 7d3d 1422 603c 5817 a63b
00000350: cdfa 74bd 56ed 66bd 7f9f b2bd bef7 91bd
00000360: d79e febd 1ffa 90bd 188c c5bd 3538 84bd
00000370: bea9 cbbd c8db e9bd cece f6bd 1162 36bd
00000380: 7368 a4bc 2939 a33d a3bc bc3c fd26 143c
00000390: 4a9c 623c 3454 8dbd 4c34 ab3d b615 4cbc
000003a0: 16af 673d 5d61 11bc 9b58 92bd 9bce c33d
000003b0: ee08 6f3d 1d79 313d 098f 86bc 9bd7 38bd
000003c0: 39f5 a6bd a850 993d 17e5 233d f3e2 cdbd
000003d0: dc5e 8fbc e902 a5bd a82d 943d 28a9 053c
000003e0: 916b ce3d b3c6 a53d cd46 b1bc 8ab3 79bd
000003f0: d979 80bc bde0 b4bd 0924 3bbd 8394 073d
0.08443166 0.0006361543 0.04576029 0.10949865 0.051705275 -0.16192377 -0.036315374 0.04522073
0.039498173 0.021394366 -0.12025938 -0.068707 -0.025073355 0.03357176 -0.04764035 -0.022503072
0.1058052 0.0122025 -0.057503887 -0.0043981248 -0.10655109 -0.05580689 0.019940203 0.029051038
-0.057100832 0.053914644 -0.024720734 -0.013270642 -0.017753411 -0.10830043 0.063533075 -0.09614173
0.21101652 -0.08203118 0.04950768 -0.08741637 -0.12152871 0.22599474 -0.26505843 0.18185572
-0.048663903 -0.050711844 0.09998834 -0.24485554 0.16555743 -0.019278742 0.04225743 -0.08867575
-0.24757618 0.0146356365 -0.111419775 -0.09582107 -0.06215164 -0.14522202 0.015866747 -0.02922517
-0.049422365 -0.075618505 -0.06626212 -0.010686886 0.15350842 0.1747197 -0.016079735 0.13344125
-0.008079511 0.08802575 0.10405226 0.00065935287 0.10103606 -0.006270039 -0.07912216 -0.033393577
0.017160084 0.016792083 -0.057495628 0.14587396 -0.10063668 0.11017719 -0.022016846 0.05733166
0.06574088 -0.04030932 0.13089868 -0.17983554 0.05216308 -0.10873898 0.027437033 0.008681678
-0.06447331 0.012065404 -0.06597187 0.0027438055 0.056022808 -0.031267792 -0.03300771 -0.09282678
-0.03440626 0.020325473 0.05174527 -0.09336039 -0.053195603 -0.055194236 0.038913723 -0.09699428
0.079432726 -0.055870842 0.11596691 -0.014808689 0.058925528 0.14454189 0.07280528 0.26842046
0.110369414 0.12941894 0.09576688 0.032436065 0.09225995 0.026183616 0.066143036 0.0022935357
0.040481944 -0.004493205 -0.06581432 -0.000113374124 0.04229999 0.036121253 0.032786857 0.034731988
-0.04530339 -0.084286556 -0.076672345 -0.10713856 -0.07517964 -0.23785499 -0.21935186 0.0165422
-0.0066978154 -0.019923288 -0.16591282 -0.02596601 0.1730136 0.123738006 0.1751669 -0.03278963
0.0054253004 0.29293826 0.21844521 0.072140135 0.0153479995 0.03440904 -0.035850454 0.07014974
0.02353843 0.03141394 -0.04012494 0.01769759 0.09141322 0.0077246027 -0.12773284 0.017584758
-0.030684909 -0.05913054 -0.24381106 -0.10793175 -0.11441375 -0.1914165 -0.17000724 -0.09110081
0.10364925 0.16249238 0.053565197 -0.0015809657 0.1372293 0.10423154 0.26117238 0.035298433
0.13833633 0.31470805 0.19335277 0.07748636 0.07235828 0.21214506 0.020700471 -0.04228635
-0.014921841 0.14398605 -0.083619125 -0.13227968 -0.14653102 -0.07267017 -0.1274405 -0.10248611
-0.1801874 -0.008641318 0.069533534 -0.16501482 -0.17244643 0.00031399378 0.0627428 -0.012421622
0.09278157 0.17236227 0.057385143 0.0057137976 0.030362813 0.07810357 0.016163867 0.023372537
-0.011211964 0.061825458 0.01368 0.0050687008 -0.059809495 -0.056378685 -0.08721828 -0.07127331
-0.1243264 -0.07078957 -0.096458614 -0.06456033 -0.09944485 -0.11418873 -0.120511636 -0.044527117
-0.020069337 0.07969887 0.023039168 0.009042499 0.0138312075 -0.06900826 0.08359584 -0.012456348
0.05656346 -0.008873311 -0.071458064 0.09560891 0.058358125 0.043328393 -0.016425626 -0.045127492
-0.08152241 0.07486087 0.0400134 -0.10053053 -0.017501287 -0.08057196 0.07235271 0.008158006
0.100791104 0.080945395 -0.021640206 -0.060962237 -0.015683101 -0.08831928 -0.045688663 0.033100616

conv2.bias f4 [16]
00000000: 4921 acbe 4d1e 09be e7b4 003f 9731 9c3e
00000010: 6010 63bd 33f3 e7bd 48a6 503d 3dda 9f3e
00000020: b8e7 bf3b 19ec 453e 8fde 663d df06 19be
00000030: 8af5 83bc 944b 8abd 95eb 0ebf 7e80 893e
-0.33619145 -0.13390465 0.50276035 0.30506584 -0.05543554 -0.113256834 0.05093983 0.3122119
0.0058564804 0.19328345 0.056364592 -0.14944027 -0.016108293 -0.06752697 -0.5582822 0.26855844

fc1.weight f4 [120, 400]
00000000: 9315 95bb ff5a e1bb 37c0 9abc 8da8 2e3c
00000010: b8f4 30bc dc3b 7dbc a2bf f4bc d03c e2bc
00000020: e122 29bc d96b ddbb a986 c2bc c604 01bd
00000030: 485c 31bd 0039 e7bc 7691 95bc dfab 183a
00000040: ab3a 773a a64e 6cbc 5507 1bbc 853e 66bc
00000050: 9890 c4bb 83ac 643b a6db 2dbb a3ae eb3c
00000060: 1fb9 ecbb 4570 5bbc 9d31 dbbb c614 42b9
00000070: e968 423c 0fac 0d3c a3b5 9abb 685f edba
00000080: c3c9 0f3c c052 dcbb 58bd aa3a ece3 103a
00000090: 1451 7e3c 3369 c2bb 8036 fabb 0448 b0ba
000000a0: 97aa 74bc 93d5 11bb 7d3a bfbc dfcc 21bc
000000b0: 66d2 ba3c 8d3b c0bb cca0 203b dc15 f43c
000000c0: de18 f33b 2411 0c3d f428 bb3c 128d fe39
000000d0: 488e 603c 7a35 703c 016c 423c 19b4 d43c
000000e0: 7bab a9bb c2e5 863c 61c0 653c 6bb2 ca3c
000000f0: edbe 7a3c 99ba 8dbc a206 663c a19b 333c
00000100: f9a8 a53c 52c6 f23c 8b8f 3b3b c861 9ebc
00000110: ce78 343c 6b41 843c 4399 193b 1c5f 33bc
00000120: 84f9 3fbc 839f 253c 8dff e33c 7022 b3ba
00000130: b7d8 133c 0cb2 0a3b 3c9f ffbb 10cd 38bb
00000140: ca90 183c 3c3d 6c3c f841 8a3c 6f89 6cbb
00000150: de02 05bd 2e6c 9e3c 7d7e 773b 71f5 50ba
00000160: 1f13 56bc df0f c8bc a8dd 16bb 0926 a53b
00000170: c2fe 08bb 47d2 dabb 9fad 6dbc b451 97bc
00000180: d132 49bc ce5c febb 21e4 55bc dde7 7dbb
00000190: 3c0e e0bc 969b b2bb 0153 9b3b 268a b9bb
000001a0: b6bc 083d e54e d2bc 0f31 84bc ef63 72bc
000001b0: bf3c 09bc 3bd2 e23c 53a7 60bc d369 98bc
000001c0: f7a4 1ebd e6e2 fb3a 1a12 033d a6ca 0d3c
000001d0: 4626 52bd 93de 10bd 309e d1bc ff7b ca3c
000001e0: b0b4 f3b8 a7dd 0fbc d875 a3bc e28d 713a
000001f0: 40be 79b9 0d40 1d3c d6d3 86bc 5d71 f73b
00000200: e0d0 863c b5fe 78bc 5598 5a3c 8dce 573c
00000210: 8bf0 1ebc 9183 c7bb 4e7d b1ba 84b6 7a3c
00000220: d5d7 cdbc ae81 42bc 1652 5b3c 31f1 fc3b
00000230: 2e28 9f3c 2b20 a5bc 0b2f 71bc 00ea 373c
00000240: b96b 39bb 8bbf 3abc e470 b1bc b9e9 f8bc
00000250: c09a 3abb 7e38 91bc c469 2fb8 a101 18bc
00000260: 9658 f4bb 721e 3fbc 1e5d 7ebb c464 653c
00000270: c8b5 3d3b b389 e1bb f41d cdbb 0209 df3b
00000280: d2dd 21bc 31a2 abbc c523 11bc 59ee 36bb
00000290: 2687 a4bc 8799 bf3b e0c8 c3bc 6767 17bc
000002a0: 682a 2dbd 3b4c b3bc f49c 8d3a e700 dbbb
000002b0: af3f eebc 9c64 0dbd 8812 a0bc 6c4b 5d3b
000002c0: 7d13 75ba 8bb2 26bc a596 3dbc a2bf 26bd
000002d0: 03e1 9538 5610 e73b 23fa 40bc 5284 9dbc
000002e0: 1678 c6bb 5163 f0bc 45c3 493b 624b c03b
000002f0: df31 a23c 6532 013d 3cdc 753b 7c6b 2a3c
00000300: 6634 533c deaf 013d 8395 6e3c bf13 d5ba
00000310: 92df ba3b 2623 1a3c eb4b 423c df37 df3b
00000320: d7a8 d338 87c1 2e3a 2815 14bc 34c8 4839
00000330: ae05 853b 7610 883b a693 e5bb 886f 83bc
00000340: 8f42 4bbb 6758 85ba 9f29 3b3c 9c14 773c
00000350: 8c73 49bc 23fc 1c38 9e8a 15bc 0f02 76bb
00000360: 8642 9aba f67d 8abc 7da9 873b 793c 84bc
00000370: 96c0 4a3c 8e53 63bb 2ef6 293a bd09 003b
00000380: 137b 53bc ba5b 08bc 6167 b1bb e1f5 17bc
00000390: 4720 9abb 459b 84bc 4792 23bc 51c0 67bb
000003a0: a5ad a53b 7ccf ebbb d42c fc3b 4316 af3a
000003b0: 6ba7 8ebc c19f cd3c 66c5 803c 333f ee3c
000003c0: f0c3 e3bc 7dd0 60bc 069e 7d3b 9249 e23c
000003d0: eaf6 c93c eee8 3cbb 19b9 7e3a 9049 a83b
000003e0: 9d70 a43c f0cb 843a 7c23 373c c432 ecbb
000003f0: e47e d33b e9f5 e0bb ee29 1a3c cac4 45bb
-0.004549691 -0.0068773027 -0.018890483 0.010660303 -0.010800533 -0.015456166 -0.029876534 -0.027616888
-0.010323257 -0.006757241 -0.023745852 -0.031498693 -0.043300897 -0.028225422 -0.018257838 0.00058239506
0.00094310445 -0.014423048 -0.009462197 -0.014052992 -0.005998682 0.0034892864 -0.0026528626 0.028769797
-0.0072242166 -0.013393466 -0.006689264 -0.0001850902 0.011865833 0.008646979 -0.00472136 -0.0018110098
0.008776131 -0.0067237318 0.00130264 0.0005527127 0.01552226 -0.005932951 -0.0076358914 -0.0013449197
-0.01493325 -0.0022252544 -0.02334332 -0.009875505 0.022805404 -0.005866474 0.0024509905 0.02979558
0.007418736 0.034196034 0.022846676 0.0004855176 0.0137057975 0.014661187 0.01186657 0.025964784
-0.005177913 0.016466979 0.0140229175 0.02474328 0.015304309 -0.01730089 0.014039667 0.010962398
0.020222174 0.029635582 0.0028619494 -0.019333735 0.01101513 0.016144475 0.0023437298 -0.010947969
-0.011717204 0.010108831 0.027831817 -0.0013666879 0.009023837 0.0021163253 -0.0078009646 -0.0028198399
0.009311864 0.014418896 0.01687716 -0.003609266 -0.032473437 0.019338693 0.0037764602 -0.0007971144
-0.013066082 -0.02442163 -0.00230203 0.0050399345 -0.00209038 -0.006677899 -0.0145067265 -0.018471576
-0.012280182 -0.007762528 -0.013054878 -0.0038742938 -0.027350537 -0.005450676 0.0047401194 -0.0056622205
0.033383094 -0.025672385 -0.016136674 -0.014794334 -0.008376299 0.027688136 -0.013711768 -0.018605148
-0.03873154 0.0019217401 0.031999685 0.008654272 -0.05130603 -0.035368513 -0.025588125 0.02471733
-0.000116207986 -0.008780873 -0.019953653 0.00092145626 -0.00023817364 0.00959779 -0.016458433 0.0075513558
0.016457021 -0.015197446 0.013341983 0.013171804 -0.009700905 -0.006088682 -0.0013541372 0.015302304
-0.02512733 -0.011871738 0.01338627 0.007719182 0.019428339 -0.02015694 -0.014720689 0.011225224
-0.0028292967 -0.011398206 -0.021660276 -0.030384885 -0.0028473586 -0.017727133 -4.1821753e-05 -0.009277732
-0.0074568493 -0.011664974 -0.0038812826 0.014001075 0.0028947461 -0.00688287 -0.006259674 0.0068064937
-0.009879546 -0.020951362 -0.008858626 -0.0027913062 -0.020083975 0.0058471593 -0.023899496 -0.009240962
-0.04227677 -0.021886935 0.0010804222 -0.006683457 -0.029083101 -0.034519777 -0.019540086 0.0033766879
-0.0009348912 -0.010174404 -0.011571561 -0.0407101 7.146785e-05 0.007051508 -0.011778387 -0.019228134
-0.006056796 -0.029344233 0.0030786556 0.0058683613 0.019799171 0.0315422 0.0037515303 0.010401603
0.012890911 0.03166186 0.014562014 -0.0016256495 0.005702921 0.009407794 0.011858921 0.0068120803
0.00010092713 0.0006666411 -0.009038247 0.00019148068 0.004059515 0.004152353 -0.0070061265 -0.016044393
-0.0031015014 -0.0010173441 0.011423497 0.015080597 -0.012295615 3.742812e-05 -0.009127287 -0.0037537848
-0.0011769093 -0.016905766 0.0041400776 -0.016142117 0.012375018 -0.0034687254 0.0006483522 0.0019537054
-0.012907761 -0.008322651 -0.005413935 -0.009274931 -0.004703555 -0.01618732 -0.009983606 -0.0035362432
0.0050561004 -0.007196365 0.0076957736 0.0013358075 -0.017413815 0.02510059 0.015719127 0.02908287
-0.027803391 -0.0137215825 0.0038698926 0.027622972 0.02465387 -0.002882536 0.0009716913 0.0051357225
0.02007323 0.0010131579 0.011177894 -0.0072082 0.0064543355 -0.0068652523 0.009409411 -0.003017711

fc1.bias f4 [120]
00000000: 7cf7 ed3b 9fea 843b e8f0 babb da4e 373b
00000010: ad4b c53c c438 fb3c cc32 5a3c 1ec6 c23a
00000020: 7605 df3c 5c29 d73c 92d2 0a37 a10a bb3b
00000030: afc1 713c fd71 dc3c 7dbf 7a3d bbf7 5d3c
00000040: 1e8c 7d3d cec2 513c c5c7 c33d a4a0 373d
00000050: 9ca8 763d 8a25 9dbc 10dc 843d acdd a1bd
00000060: d283 86bc 3b09 cebd 6cc2 4abd f92b a1bd
00000070: dc9e cebc 7837 ed3b 55f6 50bc 03c1 41bd
00000080: 7e03 973a 306e 10bd 4c0c 473c 3a54 3f3d
00000090: bbb6 e7bc b1fb 99bd 0a69 ebbb 1541 34bd
000000a0: 2993 08bd 41f3 a5bc 9a95 91bb f1ab 34ba
000000b0: 4475 033d abdf fbbc e6f0 803a 8359 21ba
000000c0: 2a00 12bd 5765 90bc 541c d23c 0ec9 863c
000000d0: 4a82 5cba ff3a 9cbc 52ae 443b 8d6e 913c
000000e0: de9c e4bb bfb4 d9bb 2546 03bd 61e6 0dbd
000000f0: f0b9 683c 95e7 8f3c 436b 4e3c bbfb 9e3c
00000100: efd0 dcbc 0fec 84bd 77d7 78b9 1d1b b83c
00000110: fda8 413d 089f c13b 949a ae3c 0285 b73d
00000120: 9201 983c b5a6 67bc a00e c4bc 560f 2eba
00000130: 21ef 703c 6a94 433b 5fa7 18bc ec5a f1bc
00000140: 3cfa 86bb e395 a73a fdd0 15bb 3979 09bd
00000150: 7bda 13ba 873c 81bd ab23 dcbc b336 27bc
00000160: 1067 7a3b fd39 af3d 5e0d f53c 86ae d93b
00000170: 562f 80bc 9590 be3b 113c d93b 83e6 51ba
00000180: 7683 933c c6bc 8b3c 89d3 c83a 43eb 5e3b
00000190: a9af bbba 1391 2c3d 5823 163d d1e3 24bd
000001a0: 2d0c 94bc b0e4 db3c b3b4 aebc 3590 82bd
000001b0: 5459 1ebc 0056 033d 6743 4abc 9e40 03bd
000001c0: 5d65 a93c 5d61 2cbc 71fb 0b3d d96e 7eba
000001d0: 2e07 983d f6c7 023d 30d3 a3bb ac53 69bd
0.0072621685 0.0040562893 -0.005704988 0.0027970583 0.024083937 0.030666716 0.013317775 0.0014860069
0.027224284 0.026264839 8.274468e-06 0.005708054 0.01475565 0.026909823 0.061217774 0.013547833
0.061901204 0.012802793 0.095595874 0.044830933 0.060219392 -0.01918294 0.06487286 -0.07903609
-0.016420279 -0.10060354 -0.04950182 -0.07869715 -0.025222234 0.0072392784 -0.012754043 -0.04730321
0.0011521426 -0.035261333 0.012148928 0.046711184 -0.028285375 -0.075187095 -0.0071841525 -0.04400738
-0.033343468 -0.020257594 -0.0044428827 -0.00068920763 0.032094255 -0.030746302 0.0009837418 -0.0006155001
-0.035644688 -0.017626448 0.025648274 0.016453292 -0.00084117486 -0.0190711 0.003001113 0.01775291
-0.006976708 -0.006643861 -0.032049317 -0.034643535 0.014204487 0.017566482 0.012598815 0.019407144
-0.026955096 -0.06490337 -0.0002373139 0.022473866 0.0472803 0.0059088506 0.021313943 0.08960916
0.018555436 -0.014138867 -0.023932755 -0.00066398585 0.01470545 0.00298431 -0.009317248 -0.0294623
-0.0041191857 0.0012785759 -0.0022860162 -0.033562873 -0.0005640161 -0.06310373 -0.026872477 -0.010205912
0.0038208403 0.08555982 0.0299136 0.0066431193 -0.015647572 0.0058155754 0.006629475 -0.0008007066
0.018007021 0.017057788 0.0015321831 0.0034014739 -0.0014319319 0.04213054 0.0366548 -0.040256325
-0.018072212 0.026842445 -0.021326398 -0.063751616 -0.009664852 0.032064438 -0.0123451715 -0.032044046
0.020678217 -0.01052126 0.03417534 -0.00097058486 0.074232444 0.03192898 -0.0049995407 -0.05696456

fc2.weight f4 [84, 120]
00000000: d3cd 7a3c 0cff f13b e02d 37bd 29e8 2f3c
00000010: ac18 5fbb 56f5 943c 32a4 2cbc 98e6 c0bc
00000020: 17ea 283c 2dc2 88bc 2bfe 3e3c 6365 dabc
00000030: 111a 083d eb5a 223d 0407 8d3c c806 ba3b
00000040: 0450 e73c fd7f e3bc 6f42 69ba bae1 24bd
00000050: 0b9b 493d a97f a5bc 3b9e 28bc c539 cabc
00000060: 1f25 943b 7389 eabc d8d9 e3bb 5f40 bebc
00000070: fd62 463c 430f af3c 50b8 b8bc 4b7b 7a3a
00000080: bdff dd3b 2e85 b73a d028 e2bb 5ddc cf3c
00000090: b467 05bc 5305 8cbc c02c 1bbb 8e92 9fbc
000000a0: 1662 66bc 0a5f f33b cba6 0e3b b717 c03a
000000b0: edc5 193c 6283 54bc c6a0 843c 79be c23a
000000c0: 70db cb3c 6d21 20bc 3449 793c c248 273d
000000d0: cb1f 4e3c af4b 093b 295d 453c 5b9b 8fbc
000000e0: 27e9 74bc 76fb a83c 326f 363b 4f12 fcbc
000000f0: 3d59 873c e12f 39bc 9c25 253c 1d7f af3c
00000100: 9b87 77bd 48a9 6c3c 3b01 be3c c0ee 1a3b
00000110: 5214 f8bb b093 2bbc 35f7 f33b dc6a de3d
00000120: 2111 d7bc 1c5c 87bc 4d41 db3a a07f 253c
00000130: 6c56 cfbc 46c5 d6bc ed88 a13c 0114 af3b
00000140: 9389 883b dc06 1dbc 17a0 41bb c1c1 b5ba
00000150: 7fbe 9dbc 8fa7 b9bc e3b7 3cbd 46bb 243c
00000160: 3cde ecbb 233e 113d 44ff 943c 96e4 433d
00000170: d444 593a 1e8e 733c d634 b13c b32a 643b
00000180: 5151 b339 dbbc b33c 95a1 a8ba 5c35 4a3b
00000190: 4f28 803c 8a74 163d fd5e 143d 0bfa 12bc
000001a0: 3d26 38bc cc4a 043c 1ed0 10bc fdad 383b
000001b0: 4715 613c 2568 1e3a b6ff a0bb 580d cdbc
000001c0: 603d 02bd 9b6a 94bc 82c0 543d 7624 883c
000001d0: 1dfb 9a3d c70a 1d3d cfb3 bfb9 f485 8cbc
000001e0: 7b1c f23c 3e6c 8c3c 24fa 1bbd c1c7 203b
000001f0: c4e1 25bd bfe4 143c 70be 833c cc2e c1bc
00000200: 8624 d83c 53b5 0bbd 49f3 5e3c ae0b 8d3c
00000210: 191d 243d 926a a43d a289 2e3d 4e4c 1abd
00000220: 9d7c f539 5f32 37bd f0ff 823c 3a48 16bd
00000230: b5db 6f3d 66f6 0abc 46a6 55bc eadb 3dbd
00000240: 425a f7ba 9165 09bd 58fc c93b 3dad 2ebd
00000250: 17c1 e33b 8cde 203c 0c58 a6bb 5556 fbbc
00000260: c2b2 96bb 9404 153c b31a 28bc 74d3 023d
00000270: 1b9c 2bbc dcee 76bd 3636 b1bb 53ef bebc
00000280: 3d71 dcba 9ea3 983c 1182 dabc a346 32bc
00000290: bf3e cb3c 3b47 2c3b 530e e1bc a2f4 fc3a
000002a0: 16a7 9b3c 78b4 6b3a 4c39 6fbc 8711 6b3d
000002b0: 2842 71bb b3f0 6bbc f75e 45ba 4c9d 85ba
000002c0: 50ba 2a3a 3aeb 0a3d 9bb1 313d dc73 99bd
000002d0: e958 d83c f7b5 e0bb f31a 82ba eb1f 8a3c
000002e0: faea a7bd 9ce7 ff3c 5d26 b63c 13e0 f5bb
000002f0: a2a0 cfbc 02c6 a2bc 34cf fcbb 7647 183e
00000300: 1ac9 2ebc 9901 5fbb f3ca d93c 9447 75bb
00000310: dda1 89bd ddb2 1fbd a467 313c c553 b73c
00000320: 3a55 84bc 3772 3fbd 6bfe f9bc bfa9 0f3d
00000330: 75e4 12bc ab62 62bc 66d9 15bd f96c 953c
00000340: 84d7 e63b 21c5 783d 63e7 ad3c a43f 113d
00000350: e60f 3bbb 7739 e2bb ecff b13b d13c 163c
00000360: 4258 ba3a 8d43 003d 89ba bfbb ce29 163c
00000370: 26fe 993c 5910 0d3d 0f56 853d ec31 51bb
00000380: 0349 8dbc e550 ef3b f44e de3b 0ab9 dabb
00000390: 2aee 88bc c470 f2bc f4ea cbbb a1d7 13bd
000003a0: 7f1f 0cbd 5925 26bc b8e1 643d 77eb 4dbb
000003b0: 3981 c53d e6c6 fe3c b17b 2d3c 3433 e2bc
000003c0: 55a2 30bc 06f4 ce39 728a e63c 052c 343c
000003d0: e36a dbbc 1198 8fbc 018d 04bb c42d e63c
000003e0: 3da0 053c f379 523d 16d9 1438 68a0 a83c
000003f0: baca 06bc d1ee 5c3b 99e3 ac38 1989 49ba
0.015307861 0.0073851403 -0.044721484 0.010736504 -0.0034041805 0.018183392 -0.010537194 -0.023547456
0.010309718 -0.016694153 0.011657278 -0.026659673 0.033227984 0.039637487 0.01721526 0.005677078
0.028236397 -0.02777099 -0.0008898144 -0.040254332 0.049220126 -0.020202475 -0.010291631 -0.02468575
0.0045210267 -0.028629994 -0.0069534592 -0.023224054 0.012108562 0.021369582 -0.022548825 0.0009555115
0.006774871 0.0014001483 -0.006901838 0.025373632 -0.0081424005 -0.017092383 -0.0023677796 -0.019479062
-0.014061471 0.007427101 0.0021766897 0.0014655505 0.009385568 -0.012970777 0.016189944 0.0014857791
0.02488491 -0.009773594 0.015215207 0.04084087 0.012580822 0.0020949652 0.012046137 -0.017530134
-0.014948166 0.020627718 0.0027837274 -0.030770449 0.016522044 -0.011302919 0.010079768 0.021422917
-0.060432058 0.014444657 0.023193946 0.0023640841 -0.0075707817 -0.010472223 0.007445241 0.108602256
-0.026253285 -0.016523413 0.0016727835 0.010101229 -0.025309764 -0.026217114 0.019718612 0.005342961
0.0041667907 -0.009584155 -0.0029544884 -0.0013866947 -0.019255875 -0.022662906 -0.046073806 0.010054415
-0.007228641 0.03545965 0.018188126 0.04782542 0.0008288149 0.014865426 0.02163164 0.003481549
0.00034202126 0.02194064 -0.0012865538 0.0030854559 0.01564422 0.036732234 0.0362234 -0.008970748
-0.0112395855 0.008074474 -0.0088386815 0.0028179877 0.013737983 0.00060427404 -0.0049132956 -0.025030777
-0.031796813 -0.01811724 0.051941402 0.016618948 0.07567427 0.038340356 -0.00036564327 -0.017153718
0.029554596 0.017141458 -0.03808035 0.0024533125 -0.04049851 0.00908774 0.016082019 -0.023581885
0.026384603 -0.03410847 0.013607808 0.017217483 0.040066812 0.08028139 0.042611726 -0.037670426
0.00046822886 -0.044725772 0.015991181 -0.036689974 0.05855914 -0.0084815975 -0.013040131 -0.046352305
-0.0018871503 -0.033544127 0.006164115 -0.04264568 0.0069505083 0.009818684 -0.005076414 -0.030680815
-0.0045989463 0.00909533 -0.010260272 0.03193994 -0.01047423 -0.060286388 -0.005408074 -0.023307478
-0.0016818416 0.018632706 -0.026673349 -0.010881099 0.024810193 0.0026287574 -0.02747265 0.001929898
0.019000571 0.00089914305 -0.014601063 0.057389762 -0.0036813114 -0.014400649 -0.00075291045 -0.0010193973
0.0006512748 0.033915736 0.04338227 -0.074928015 0.026409583 -0.0068576294 -0.0009926244 0.016860923
-0.08199115 0.03123837 0.02223509 -0.0075035184 -0.02534515 -0.019869808 -0.00771513 0.1487101
-0.010668064 -0.0034028052 0.026586032 -0.0037426697 -0.06720326 -0.038988937 0.0108279325 0.022378812
-0.01615392 -0.046739783 -0.030516824 0.035073992 -0.008965601 -0.01381747 -0.03658428 0.018240439
0.0070447344 0.06073487 0.021228498 0.035461083 -0.0028543412 -0.006903823 0.0054321196 0.009169773
0.0014216977 0.03131442 -0.005851094 0.00916524 0.018797945 0.03443942 0.06510555 -0.0031920625
-0.017246729 0.0073033446 0.0067843143 -0.0066748904 -0.016715128 -0.029594786 -0.006223077 -0.03609431
-0.034209725 -0.01014074 0.055879325 -0.0031420866 0.09643788 0.031100702 0.010588572 -0.027612306
-0.0107808905 0.00039473193 0.028142188 0.010996823 -0.026784366 -0.017528566 -0.0020225646 0.028097995
0.00815588 0.05138583 3.5488127e-05 0.0205843 -0.008227045 0.0033711682 8.2439925e-05 -0.00076879706

fc2.bias f4 [84]
00000000: f146 e53d d8c1 3d3e 23c5 0e3d ef70 0b3d
00000010: d6a8 80bb 1229 0e3e fb14 db3b c91c 29ba
00000020: 6274 f33b 79fe 11bc 766b 8dbc b1a7 7b3e
00000030: 9492 ce3b 14ab 3a3c 2a07 913c 957f 33be
00000040: 4322 f13c 56c2 253d 3511 0c3b b557 cebd
00000050: 7eb5 85bd c8ab 60bb 9cef 693e 2d9a 573c
00000060: 8566 8c3c 6415 93bd 8287 f6bd 2793 dbbc
00000070: 7ac9 0cbe 4d10 b03c 0b6c 623c fc51 8abd
00000080: 35a1 2c3c 0789 18bb e9e3 63bd 1131 b6bc
00000090: 0dc0 443c cf88 823d b280 5d3d 9347 94ba
000000a0: 3349 44be 02d8 fd3d 9092 c23c b712 5abd
000000b0: 1d26 913d fe5d 933d 2558 413d 4ab3 13bc
000000c0: 04e6 793d e959 fcbd f6dd aabd 773b 78bd
000000d0: 5171 a4bd ac15 163c db65 abbd b77f 1a3e
000000e0: 7c6e aebc 9eb7 ad3d c2d0 d7bb 1bb6 043c
000000f0: 59e2 873c 451f 0c3e ce01 613d a015 b1bd
00000100: 8a1a 23bb 32f8 c9bb be7e 9b3b e5b3 8c3d
00000110: f34c bbbc 4e88 6f3d 40df 593e 3e04 cd3d
00000120: 96ae 263b f18e e5ba 07a0 c5bc c081 2fbc
00000130: b552 0c3a f8c4 6eba 536d 313d efd6 873d
00000140: 7435 5b3d 05f9 073d 58e6 3b3d 1e2b b639
0.111951716 0.18530977 0.034855973 0.03404325 -0.003926377 0.13882855 0.0066858507 -0.00064511277
0.0074296454 -0.008910769 -0.017263155 0.24575688 0.0063040946 0.011393327 0.017703611 -0.17529137
0.029435283 0.040468536 0.002137256 -0.100753225 -0.065287575 -0.0034282077 0.2284531 0.013159317
0.017138729 -0.07181814 -0.12037565 -0.026803566 -0.13748732 0.021492148 0.013819705 -0.067539185
0.010536482 -0.0023275034 -0.055637274 -0.022240194 0.012008679 0.063737504 0.05407781 -0.0011312835
-0.19168548 0.12394716 0.023751527 -0.053240504 0.07087348 0.07195662 0.0472032 -0.009014914
0.061010376 -0.123218365 -0.08343117 -0.060603585 -0.08029426 0.00916044 -0.08369037 0.15087782
-0.021292917 0.08482288 -0.006586165 0.008100058 0.016587423 0.13683803 0.05493336 -0.08646703
-0.0024887645 -0.0061636204 0.0047453335 0.0687025 -0.02286384 0.0584796 0.2127657 0.10010575
0.0025433651 -0.0017513913 -0.024124159 -0.010712087 0.00053529005 -0.000910833 0.04331715 0.06632792
0.053517774 0.033196468 0.04587397 0.0003474587

fc3.weight f4 [10, 84]
00000000: 7756 3bbd 3688 c1bd 5b44 aabd aacc e43c
00000010: 8c3c 233e 62c0 eabd 5c95 64bc 8919 333c
00000020: 66ec b63d 71b0 c4ba 4f12 52bc 184d 05be
00000030: 5657 7d3c 7bd4 e43c e879 123d bb97 643d
00000040: ef09 73bd 3a69 6e3e 62d5 88bb cba2 cdbd
00000050: 62d4 8f3d bd46 61bc d6a5 53bd 178c 59bd
00000060: 758a 1ebe f4f1 13be fc50 25be f84c a23a
00000070: 8062 3c3d 4bbc 31bd 07b2 32bd fb5b 1a3e
00000080: de2f eabb fb89 a9bd 7dac 833c d28a 243c
00000090: cca2 12bd c39f 203e de40 02be 569c 2bbc
000000a0: e394 803d ff8b 1f3b ca06 933d 9a37 5d3d
000000b0: ff12 c7bc b5e1 0d3e 51dc 8e3d a183 38bc
000000c0: 96df d93d 03f4 d9bc 84c2 703d 7731 073d
000000d0: 50d9 0ebe 8ce0 093e 004b 703e 359d b53d
000000e0: 23d4 57bd 3544 2a3e 93f3 843b c68a e83d
000000f0: cef0 4f3d 2568 ac3e 1620 a43d de56 393e
00000100: e414 9a3c b4d4 df3e a48f febd 3cc0 d1bd
00000110: 566a a7bd 3798 203d c9d9 e3bd 30e9 c0bd
00000120: 524b 83bc 3868 5bbc b96f 3cbd e90f 303e
00000130: d3ba f6bb af22 2bbc 5333 e7bd 2b29 2fbe
00000140: 1c76 40b8 ccee 83bc fd74 2f3d 0b30 8abc
00000150: 7e16 dd3b 8a84 8dbd 5370 05be ca50 d33d
00000160: 2fec 67be 3721 a1bd a95f 89bd 19a2 8d3c
00000170: fdeb eabc e0ae 85be 7b4b 11be 349a f9bd
00000180: 9f34 2dbe b178 35bc 4873 25bd 021d 693e
00000190: 1425 f1bc e1be 19be 1fbd 30bc 76f2 9e3d
000001a0: 11bd a23d 2346 3b3c 23bc d9bd 9d1d 5fbd
000001b0: b805 143e ccdc acbd f391 8c3e a00c 4ebd
000001c0: d469 853e a1e4 573a cf52 01bd a1b0 173c
000001d0: 6b76 8cbc a1e5 3d3e f403 88bd a04e 0bbc
000001e0: c8b1 653d 05b0 77bc e744 95be d91c 9f3b
000001f0: 321b d93d 78fb bfbd 5804 71bc 5f25 b33d
00000200: f413 4dbe b49d 393e 327d cabd 2606 f6b9
00000210: bef2 b4b9 ece6 a63e f012 ae3d 120c c83d
00000220: bd49 1d3e 31d1 a13d 4d62 883e 8379 8e3d
00000230: 0708 413e c750 4839 019f 5e3c 788d 4b3e
00000240: 58e3 ccbc 0fd4 83be 9472 b9bd 995a b43d
00000250: b250 c13a 5a8e 21bc b29e c43d 3415 2dbe
00000260: 25e7 6bbd 1a3f e2bc 57e2 cfbd fe10 a8be
00000270: 0dde 653d bfa8 86bb 3fe4 e73d a7e6 bebd
00000280: a805 2ebc 8efb 6dbc 379d 19be f726 40be
00000290: 3194 dcbd ce88 cbbd dd25 1bbe 7da5 0dbc
000002a0: c6ca d83d 2592 d13d 3e18 be3d c483 0bbd
000002b0: bc0d 033e 08e7 fc3d ca90 cd3c 6494 bb3c
000002c0: cfdd 2c3d a27e 053d dadb 90bb 4d05 493e
000002d0: b67f 173e 90e6 fbbc 3f3a d53d efc2 c4bc
000002e0: 1532 943c 6b34 af3e dda1 2c3c 4da3 73bd
000002f0: 8c7f 99bd 8572 08bc 004a 753e ca66 ca3d
00000300: 17ba 163d 05ea 08be 0b4e 31be 2b45 a13d
00000310: cebc 73bd f7c4 613d ecb2 19be 1b4b c13b
00000320: 6f16 16bc dcc6 c13d 0c6b 07be 1b89 21bd
00000330: 04ce f6bb 74c3 b2bc 3ec1 a03c 5708 cbbb
00000340: f6ca 53be 4657 b13d 9cb1 473d 5390 5bbd
00000350: 83fe cb3c 46f8 81bd 8bf2 273d 67af f13c
00000360: 3782 27bd 6409 b1bd 4a95 94bd 5bee f5bd
00000370: bbb6 e5bd 6b3d 5cbc 251c 873d 1376 9fbd
00000380: 073f 65bd 5edd aabd d20b 1bbc bf79 b7bc
00000390: 4432 a7bb a858 463e b39e f63d 4c2c 9e3c
000003a0: b2a1 59bb c58b 2e3e 1a87 d1bb cbe7 dbbd
000003b0: 8d5a 23bc d5bc 6f3e 3cd6 8a3d 136e 783d
000003c0: 4fd4 483d e638 4ebc 2d1a 8abd 133d c23d
000003d0: 5994 ebbb 9864 f0bb 1261 bd3b 8524 fa3d
000003e0: 580f 82bd 5a1e 4c3c dfa3 193e 26cf 37bc
000003f0: ec6a e1bd 2ebb 07be afe0 e03a 4f98 7f3d
-0.045736756 -0.09449808 -0.08313819 0.027929623 0.15941066 -0.11462475 -0.013951626 0.010931381
0.08931808 -0.0015006197 -0.012821748 -0.1301769 0.015462717 0.02793335 0.03576079 0.055808764
-0.059335645 0.23282328 -0.004175828 -0.10040816 0.07022931 -0.0137497755 -0.051671825 -0.053112116
-0.15482505 -0.14447767 -0.16144174 0.0012382558 0.045992374 -0.04339246 -0.04362681 0.1507415
-0.0071468195 -0.08278271 0.01607346 0.010042863 -0.035799786 0.15685944 -0.12720057 -0.010474285
0.06278398 0.0024344919 0.07179029 0.054008104 -0.02430105 0.13855632 0.06975616 -0.0112618515
0.10638349 -0.026605612 0.058779255 0.033006158 -0.13950086 0.13464564 0.2346611 0.088678755
-0.052692544 0.16627581 0.0040573566 0.11354594 0.05076676 0.33673206 0.080139324 0.18099543
0.01880879 0.43716967 -0.12429741 -0.10241744 -0.08174579 0.039207663 -0.111255236 -0.09419477
-0.016027126 -0.013391547 -0.046004985 0.17193569 -0.0075295954 -0.010445281 -0.11289086 -0.17105548
-4.5886365e-05 -0.016105078 0.042836178 -0.016868612 0.006747066 -0.069100454 -0.1303113 0.10318144
-0.2264869 -0.07867663 -0.06707699 0.017289208 -0.028676981 -0.26109982 -0.1418895 -0.12187615
-0.16914605 -0.011076138 -0.040393144 0.22764972 -0.029436626 -0.15014221 -0.0107872775 0.077610895
0.07946218 0.011430296 -0.10631587 -0.0544716 0.14455307 -0.08440551 0.274551 -0.05030501
0.26057303 0.00082356675 -0.031573113 0.00925842 -0.01714631 0.18544628 -0.06641379 -0.008502632
0.05607775 -0.01511765 -0.2915413 0.004855734 0.1060089 -0.09374136 -0.014710508 0.08747362
-0.20027143 0.18126565 -0.0988716 -0.00046925357 -0.00034513132 0.32598054 0.08499706 0.09767927
0.1536016 0.07901228 0.26637498 0.0695677 0.18850718 0.00019103578 0.013587714 0.19878185
-0.02501075 -0.25747725 -0.09055057 0.08806343 0.001474878 -0.009860599 0.09600581 -0.1690262
-0.057593483 -0.02761798 -0.10150593 -0.32825464 0.056119967 -0.0041094716 0.11322831 -0.09321337
-0.010621466 -0.014525307 -0.15001379 -0.18764864 -0.10770453 -0.09938203 -0.15151162 -0.0086454125
0.10585551 0.10232953 0.092819676 -0.03406121 0.12798208 0.12348753 0.025093455 0.022897907
0.04220372 0.03259147 -0.0044207396 0.19630928 0.14794812 -0.03074959 0.104115 -0.024018733
0.018090287 0.3421968 0.010536638 -0.059481908 -0.07495031 -0.008328085 0.2395401 0.09882887
0.036798563 -0.13370521 -0.17314927 0.07874521 -0.05950623 0.05511948 -0.1500966 0.005898846
-0.009160622 0.094617575 -0.13224429 -0.039437395 -0.007531883 -0.021821715 0.019623395 -0.0061960625
-0.20682892 0.08659224 0.048753366 -0.053604435 0.024901634 -0.063461825 0.04100279 0.029502584
-0.040895667 -0.08644369 -0.07255037 -0.12008353 -0.11216494 -0.013442378 0.06597165 -0.07786193
-0.05596831 -0.08343004 -0.009463267 -0.02239692 -0.0051024277 0.19369757 0.12041988 0.019308232
-0.003320795 0.17045505 -0.006394279 -0.107375704 -0.009970319 0.23411877 0.06779143 0.06065185
0.0490306 -0.012586808 -0.06743274 0.09484305 -0.0071893153 -0.0073362105 0.005779394 0.12213997
-0.06350583 0.012458408 0.15003918 -0.011218822 -0.11006722 -0.13254997 0.0017156805 0.062401112

fc3.bias f4 [10]
00000000: a0bf 3fbf 0b4a 1bbf 1031 793e 29c6 b43e
00000010: 5f8c a83f 8aec 2ebe dabd 023f 0089 cfbe
00000020: 39db 083e 8932 20bf
-0.7490177 -0.60659856 0.24335122 0.35307434 1.3167838 -0.1708242 0.5107094 -0.4053421
0.13364877 -0.6257711
